# YOLOv5 🚀 by Ultralytics, GPL-3.0 license

# Parameters
nc: 80  # number of classes
depth_multiple: 0.33  # model depth multiple
width_multiple: 0.25  # layer channel multiple
anchors:
  - [ 5,6, 8,14, 15,11 ]  # P2/4
  - [ 10,13, 16,30, 33,23 ]  # P3/8
  - [ 30,61, 62,45, 59,119 ]  # P4/16
  - [ 116,90, 156,198, 373,326 ]  # P5/32
  - [ 401,344,  316,304,  518,245 ]  # P5/64

# YOLOv5 v6.0 backbone
backbone:
  # [from, number, module, args]
  [ [ -1, 1, Conv, [ 64, 6, 2, 2 ] ],  # 0-P1/2
    [ -1, 1, Conv, [ 128, 3, 2 ] ],  # 1-P2/4
    [ -1, 3, C3, [ 128 ] ],
    [ -1, 1, Conv, [ 256, 3, 2 ] ],  # 3-P3/8
    [ -1, 6, C3, [ 256 ] ],
    [ -1, 1, Conv, [ 512, 3, 2 ] ],  # 5-P4/16
    [ -1, 9, C3, [ 512 ] ],
    [ -1, 1, Conv, [ 768, 3, 2 ] ],  # 7-P5/32
    [ -1, 3, C3, [ 768 ] ],
    [ -1, 1, Conv, [ 1024, 3, 2 ] ],  # 9-P6/64
    [ -1, 3, C3, [ 1024 ] ],
    [ -1, 1, SPPF, [ 1024, 5 ] ],  # 11
  ]

# YOLOv5 v6.0 head
head:
  [ [ -1, 1, Conv, [ 768, 1, 1 ] ],
    [ -1, 1, nn.Upsample, [ None, 2, 'nearest' ] ],  # 64 ==> 32
    [ [ -1, 8 ], 1, Concat, [ 1 ] ],  # cat backbone P4
    [ -1, 3, C3, [ 768, False ] ],  # 15

    [ -1, 1, Conv, [ 512, 1, 1 ] ],
    [ -1, 1, nn.Upsample, [ None, 2, 'nearest' ] ],  # 32 ==> 16
    [ [ -1, 6 ], 1, Concat, [ 1 ] ],  # cat backbone P3
    [ -1, 3, C3, [ 512, False ] ],  # 19 (P4/16-small-small)

    [ -1, 1, Conv, [ 256, 1, 1 ] ],
    [ -1, 1, nn.Upsample, [ None, 2, 'nearest' ] ],  # 16 ==> 8
    [ [ -1, 4 ], 1, Concat, [ 1 ] ],  # cat backbone P3
    [ -1, 3, C3, [ 256, False ] ],  # 23 (P3/8-small)

    [ -1, 1, Conv, [ 128, 1, 1 ] ],
    [ -1, 1, nn.Upsample, [ None, 2, 'nearest' ] ],  # 8 ==> 4
    [ [ -1, 2 ], 1, Concat, [ 1 ] ],  # cat backbone P3
    [ -1, 3, C3, [ 128, False ] ],  # 27 (P3/4-small)

    [ -1, 1, Conv, [ 128, 3, 2 ] ],
    [ [ -1, 23 ], 1, Concat, [ 1 ] ],  # cat head P4
    [ -1, 3, C3, [ 256, False ] ],  # 30 (P4/8-medium)

    [ -1, 1, Conv, [ 256, 3, 2 ] ],
    [ [ -1, 19 ], 1, Concat, [ 1 ] ],  # cat head P4
    [ -1, 3, C3, [ 512, False ] ],  # 33 (P4/16-medium)

    [ -1, 1, Conv, [ 512, 3, 2 ] ],
    [ [ -1, 15 ], 1, Concat, [ 1 ] ],  # cat head P5
    [ -1, 3, C3, [ 768, False ] ],  # 36 (P5/32-large)

    [ -1, 1, Conv, [ 768, 3, 2 ] ],
    [ [ -1, 12 ], 1, Concat, [ 1 ] ],  # cat head P6
    [ -1, 3, C3, [ 1024, False ] ],  # 39 (P6/64-xlarge)

    [ [ 27, 30, 33, 36, 39 ], 1, Detect, [ nc, anchors ] ],  # Detect(P3, P4, P5, P6)
  ]
