# YOLOv5 🚀 by Ultralytics, GPL-3.0 license

# Parameters
nc: 80  # number of classes
depth_multiple: 0.67  # model depth multiple
width_multiple: 0.75  # layer channel multiple
anchors:
  - [ 10,13, 16,30, 33,23 ]  # P3/8
  - [ 30,61, 62,45, 59,119 ]  # P4/16
  - [ 116,90, 156,198, 373,326 ]  # P5/32

# YOLOv5 v6.0 backbone
backbone:
  # [from, number, module, args]
  [ [ -1, 1, MSCAN, [ 64,  4, 3, True,  0.1, 0.2 ] ],  # 0-P1/4
    [ -1, 1, MSCAN, [ 128, 4, 4, False, 0.1, 0.2 ] ],  # 1 -P2/8
    [ -1, 1, MSCAN, [ 256, 4, 8, False, 0.1, 0.2 ] ],  # 2 -p3/16
    [ -1, 1, MSCAN, [ 512, 4, 3, False, 0.1, 0.2 ] ],  # 3 -P4/32
  ]

# YOLOv5 v6.0 head
head:
  [ [ -1, 1, Conv, [ 512, 1, 1 ] ],
    [ -1, 1, nn.Upsample, [ None, 2, 'nearest' ] ],
    [ [ -1, 2 ], 1, Concat, [ 1 ] ],  # cat backbone P4
    [ -1, 3, C3, [ 512, False ] ],  # 7

    [ -1, 1, Conv, [ 256, 1, 1 ] ],
    [ -1, 1, nn.Upsample, [ None, 2, 'nearest' ] ],
    [ [ -1, 1 ], 1, Concat, [ 1 ] ],  # cat backbone P3
    [ -1, 3, C3, [ 256, False ] ],  # 11 (P3/8-small)

    [ -1, 1, Conv, [ 256, 3, 2 ] ],
    [ [ -1,  8 ], 1, Concat, [ 1 ] ],  # cat head P4
    [ -1, 3, C3, [ 512, False ] ],  # 14 (P4/16-medium)

    [ -1, 1, Conv, [ 512, 3, 2 ] ],
    [ [ -1,  4 ], 1, Concat, [ 1 ] ],  # cat head P5
    [ -1, 3, C3, [ 1024, False ] ],  # 17 (P5/32-large)

    [ [ 11, 14, 17 ], 1, Detect, [ nc, anchors ] ],  # Detect(P3, P4, P5)
  ]